frogger_dqn.pth (torch, 77381 bytes, 6 tensors)

fc.0.weight f4 [128, 10]
00000000: b075 093f c2bd c7bd b0d0 7fbe 8077 b43d
00000010: 06e2 b53d 3efb 7d3e bb33 37be d916 463e
00000020: 46f6 6b3d 3b1d 1d3f ab53 9abe 5ce7 89be
00000030: 0cee bc3d e760 d1bd 2b4e 9cbe 2cfe 5dbe
00000040: d9fa 24be af6f a13e 893b 543e 7ca5 54be
00000050: 482a 9c3a 782c c1be 1155 3bbd 64d5 103f
00000060: ab4f 1dbe 7d11 063f 0829 95bd cd8d 013f
00000070: 1157 803e a22a d83e 1706 0ebe f47e 05be
00000080: 58a2 fbbd b7f0 5f3e d84a e13d e3ee 643d
00000090: 46bb 493d 83e0 f6bd 202b 3cbe 6ed8 5dbe
000000a0: 254d 453f 4df4 7ebb f776 383f d2bf 08bf
000000b0: 9192 843e 6a26 b5be 4277 263f c5df 76be
000000c0: e3e7 a93e 8f3b 25bf f942 983f 01b8 8d3e
000000d0: 96ce a33e 8b63 f2be 9590 46bd 870d d6be
000000e0: 0544 aa3e 7ba2 0cbf b20d 003c dafd 40be
000000f0: b06c b8bf aa99 ac3e 5431 38bf c51b 7d3e
00000100: 73bf 93bd ed0e a53e 0cb5 94be dfcc c2bd
00000110: 68d7 a8bd f947 ec3e 3fc8 dfbe 9c6b e3be
00000120: f538 083f 57fe a73e 8d26 0b3f b4fd b83d
00000130: 8460 ef3e 0a81 f0bd 349e e93e f5c5 043e
00000140: 94e1 28be a360 45be 7b0a aabe c60f 1f3f
00000150: 7786 653e abd9 5c3d 27d1 8cbd a79d e03e
00000160: 88e1 0f3e 425b 1b3f e383 fb3d cf92 1c3e
00000170: cc81 923e d539 09be b10e 89be c371 6ebc
00000180: 166f 85be 8e72 91bd 383b 2abe 59e4 8ebe
00000190: e458 1bbe 9c9c 31bf 8103 853e 5dca cbbd
000001a0: 4911 183f c493 a53e 1a19 c63e 05ad 303e
000001b0: 47f7 c03e d0d5 463d b284 94bd 37b1 8e3d
000001c0: 73fd 3a3c d9f4 a1be 4ae2 7e3e 4c33 cabd
000001d0: 43c1 38bd 998f 7fbd 6853 063e 3701 41be
000001e0: 3d54 a0be 55de babe 5eef 1cbf 55e6 a9be
000001f0: 4e6a 04bf f950 74bd e22b 783e d0bf 45be
00000200: 0c84 db3e b429 e3bd ac26 94be 775e 72be
00000210: 23bd a03c 2a1f e73c f48b 94be b783 32be
00000220: ec04 0e3e 1066 6e3c 0d81 73be 361d 843e
00000230: 7411 9ebd 29a2 a33d bf7e fe3c d77a 94be
00000240: 3824 193d 624c b0bd adf6 8bbe c588 6bbd
00000250: 2518 953e 630c c03d 9b08 763e 5a0b 2cbf
00000260: dd05 0d3f a347 0bbe 7506 413e fdc2 843e
00000270: ecb8 d53e 393c 193e 7e49 b03e a260 023e
00000280: 14e8 d13e 3e5b 453e 7e65 aabe 9652 013f
00000290: 3162 16be ea64 1c3f d843 ae3d fbf8 063e
000002a0: d286 843d dc1f 1c3f 440a d33e 46a2 5fbd
000002b0: 2015 3dbe a8af b93e daf0 423b f8c2 0e3f
000002c0: eb7a 45be af0c fc3e ddf3 783e 0db7 283e
000002d0: 5afc 893e b858 0bbe aff0 b4bc d640 413e
000002e0: e568 e03e 64dc f23d 2d51 efbe 5e38 003f
000002f0: bfd0 bcbd f6a0 763e 47b0 04be c4e8 383b
00000300: 68f5 8bbe f527 edbd dd5a b2bc 18d6 f33c
00000310: a119 743e 29e4 a1bd 77da a0be d47d 39be
00000320: 6596 ea3d a275 063e 47de adbd 2a5c ac3e
00000330: b028 fc3d 4850 f93e e13d 0a3e b8d4 f93e
00000340: d597 6b3e 0551 243f 4c3e 913e 7f0d 3ebe
00000350: 6ef9 7d3e 0868 a13d ac54 be3b bac4 a23d
00000360: 66a4 a2be e622 0f3f 04fd 90be de22 193f
00000370: 7c72 f3bd 5503 da3d c49f 62be 44f7 0e3f
00000380: 14e0 c73d a153 943d 3ff4 3cbe 0e01 933e
00000390: 51c6 a73d dd96 163f bffd b33e 6fec 623d
000003a0: c804 babe f8ae fa3e f11a d4bc 9f6b 1b3f
000003b0: 4226 173d 889f 1e3f f75e 25be 33f8 8d3e
000003c0: 9245 2a3f 735f f43e fbfe b0bf 2fdb d93e
000003d0: da28 d1be d015 093e fd70 90bf 98ba d33e
000003e0: 1362 ecbe 01a4 723e 29ae aabd 83c0 90be
000003f0: bac5 123e 0e16 9b3e ff15 80be 6ecf a0be
0.536952 -0.0975299 -0.24981952 0.08811855 0.08881001 0.24802873 -0.17890827 0.19344653
0.05760791 0.6137273 -0.3014196 -0.26934326 0.09225091 -0.10223561 -0.30528387 -0.2167899
-0.16111316 0.3153052 0.20725836 -0.20766252 0.0011914456 -0.3772924 -0.045735423 0.5657561
-0.15362422 0.52370435 -0.07283217 0.50606996 0.25066426 0.42220026 -0.1386951 -0.1303671
-0.12286824 0.21869169 0.110006034 0.055891883 0.049250863 -0.12054541 -0.18375826 -0.21664593
0.7707084 -0.0038902939 0.72056526 -0.53417695 0.2589307 -0.3538087 0.65025723 -0.24108799
0.33184728 -0.64544004 1.1895438 0.27679446 0.3199355 -0.4734157 -0.048477728 -0.41807196
0.3325502 -0.54935426 0.007815765 -0.18846837 -1.4408169 0.33710986 -0.7195027 0.24717624
-0.072142504 0.3223795 -0.29044378 -0.09511732 -0.082442105 0.4614866 -0.43707463 -0.44418037
0.5321191 0.32811233 0.543557 0.09032765 0.46753323 -0.11743362 0.45628512 0.1296614
-0.16492301 -0.19275145 -0.3321112 0.62133443 0.22414576 0.05391852 -0.0687583 0.4387028
0.14050877 0.60686123 0.12281015 0.15290378 0.28614652 -0.13400967 -0.2676902 -0.01455349
-0.26061314 -0.07101928 -0.16624153 -0.2790859 -0.15170628 -0.6937959 0.25979236 -0.09950707
0.59401375 0.323393 0.38691026 0.17253502 0.37688658 0.04854375 -0.07251872 0.06967395
0.011412966 -0.31632116 0.2489101 -0.09873065 -0.045106184 -0.062392805 0.13117754 -0.1884812
-0.3131427 -0.3649775 -0.61302745 -0.33183542 -0.5172471 -0.059647534 0.2423549 -0.19311452
0.4287418 -0.110919386 -0.28935754 -0.23668848 0.019621437 0.028213102 -0.29013026 -0.17433058
0.13869065 0.014550701 -0.23779698 0.25803536 -0.07718173 0.07989914 0.031066297 -0.2899997
0.037388057 -0.08608319 -0.27336636 -0.05750348 0.29119983 0.093773626 0.2402672 -0.6720482
0.5508707 -0.13601546 0.1885012 0.25930014 0.41742647 0.1496438 0.3443107 0.12732175
0.40997374 0.19273087 -0.33280557 0.5051664 -0.14685895 0.6109148 0.08509034 0.13180916
0.064710274 0.60986114 0.4121877 -0.054598115 -0.1846509 0.36266828 0.002974561 0.5576625
-0.1928517 0.49228427 0.24311776 0.16476078 0.2695034 -0.13608062 -0.022087423 0.18872389
0.43830028 0.118584424 -0.4674162 0.5008601 -0.09219503 0.24084839 -0.1295787 0.002821491
-0.27335668 -0.11579887 -0.021771843 0.029765174 0.23837902 -0.07904846 -0.31416675 -0.18114406
0.11454467 0.13130811 -0.08489662 0.33664066 0.12312448 0.48694062 0.13500167 0.48795104
0.23007138 0.64186126 0.2836784 -0.18559836 0.24802181 0.078811705 0.0058084335 0.07947679
-0.3176605 0.55912626 -0.28318036 0.5981883 -0.118870705 0.10645167 -0.22131258 0.5584605
0.097595364 0.072425134 -0.18452547 0.28711742 0.08192123 0.5882395 0.3515453 0.055401262
-0.36331773 0.48961616 -0.025891753 0.6071109 0.03690172 0.61962175 -0.16149507 0.27728423
0.66512406 0.47729072 -1.3827814 0.42550036 -0.4085148 0.13387227 -1.1284481 0.41353297
-0.46168575 0.23695375 -0.08334 -0.28271875 0.14333239 0.30290264 -0.25016782 -0.31408256

fc.0.bias f4 [128]
00000000: 4320 0b3f 3516 8ebe 9259 133f eb49 b13d
00000010: 22bf 21bf 176b ac3c a9d4 bbbc b320 293e
00000020: eac9 703e de88 46be 0c19 293e cb2c 6d3e
00000030: 5dee d3be f767 9abe a597 c0bd 0367 883d
00000040: fa64 943e 3525 ae3c 3ccc a23e 0d85 2a3e
00000050: 4192 053d 4f91 1b3d 3b28 9b3c a730 683d
00000060: b7e2 093f 5583 3ebd 9963 31bf c30a 5b3e
00000070: 4109 833e f3e4 a4be 7bde 023e cc94 c43e
00000080: 42ce e0be bb1f 673f fcf8 e83e c57b 053e
00000090: fef8 9a3e 660b dabd 3048 02bd bb13 063e
000000a0: 95dd 8b3d 7b17 ed3e 66d6 0d3f 9013 153f
000000b0: f837 1e3f e54b 3cbe f5ad 5d3e 1221 a23e
000000c0: aa16 0cbe 9d5d b83e e9c2 903d 6629 293e
000000d0: 4425 b8bd b7b8 333d 1782 9e3e f2bd 213f
000000e0: 068e 973d d39c 6e3d 0076 513e 8066 d2bd
000000f0: 0f34 923e 6637 69bd ad07 7cbe e0de ddbd
00000100: 4281 8cbe 31be 623d 8c5c 013e f358 04be
00000110: 8083 cf3e 0a61 fbbe 6cdb 88be 66fa 023f
00000120: 9151 07be 357e c3bc 80ce 8e3d 1da5 8c3e
00000130: a4ed 42be 855d d73d d30b f03e c62a b83d
00000140: b599 783d f973 32be a81d 103e c479 193f
00000150: 9cbd ed3d 0d23 03be 48fb 87be 0b8e 843e
00000160: 2a63 f13d 5c41 bcbd 362a ae3e 4561 823e
00000170: f5df cf3e ffc2 0fbf 3441 c83d b373 d5be
00000180: e15c a73e 0626 e1bd 413a 123d d31d 8c3e
00000190: d0b7 223d 8671 1b3f 3e90 973e d9d2 08bd
000001a0: 0780 793e bc55 dd3e c28c 033e e9e5 5c3e
000001b0: 5f79 84be 3fad b53e 128f 2b3d f8f8 053f
000001c0: f08f f13d 3a02 03be ed59 803e 2fcb d43e
000001d0: 357a a5be 0516 e43e 29f5 a0be 7dab 063f
000001e0: 6758 003f 11f5 0c3f 0faa 1b3e 465e 9abc
000001f0: 82c9 9dbe 4772 4d3e a5e2 b13e ea33 cdbd
0.543461 -0.27751318 0.5755855 0.08656677 -0.6318227 0.021047158 -0.022928553 0.1651638
0.23514524 -0.19388148 0.16513461 0.23161618 -0.41392794 -0.30157444 -0.09403924 0.06660273
0.2898329 0.021257976 0.31796443 0.16652317 0.03261018 0.037980374 0.018940082 0.056687023
0.53861564 -0.046511967 -0.692926 0.21390824 0.25592998 -0.32205924 0.12780182 0.38394773
-0.43907362 0.9028279 0.4550246 0.13035496 0.3026809 -0.10646705 -0.031807125 0.13093464
0.06829373 0.46306977 0.5540527 0.58232975 0.6180415 -0.18388326 0.2164839 0.31665856
-0.1368052 0.3600892 0.07068426 0.16519699 -0.08991483 0.04387733 0.30958626 0.6318046
0.07400136 0.058255028 0.2045517 -0.102734566 0.28555343 -0.056937598 -0.24612303 -0.10833526
-0.27442366 0.055357162 0.1263296 -0.12924556 0.40530014 -0.49097472 -0.26729906 0.5116333
-0.13214709 -0.023863891 0.069729805 0.2746972 -0.19035965 0.10515884 0.4688402 0.089925334
0.06069346 -0.17427053 0.14073813 0.59951425 0.11608431 -0.1280634 -0.265589 0.2588962
0.11786492 -0.09192154 0.3401658 0.25464836 0.40600553 -0.56156915 0.097780615 -0.41689834
0.32688048 -0.109935805 0.035700087 0.27366504 0.03972608 0.607201 0.29602236 -0.033404205
0.24365245 0.43229473 0.12846664 0.21572079 -0.2587385 0.3548374 0.04188449 0.5233302
0.11795032 -0.12793818 0.25068608 0.41561267 -0.323198 0.4454805 -0.31437042 0.5260542
0.5013489 0.5506144 0.15201591 -0.018843781 -0.308178 0.20063125 0.3474323 -0.100196674

fc.2.weight f4 [128, 128]
00000000: 3c69 d13e 4af6 933d dd1f 443f aec7 503c
00000010: 7b38 01c0 7ae2 bcbf 2dbb c6bf 6af3 d33e
00000020: 01f1 263f 8a96 803d 36d3 233f 8265 9bbc
00000030: b291 c73f 9888 673d b48d 773d 6ec4 fa3e
00000040: a37f cc3e 118a df3e f80f 0c3f 02fd 77bd
00000050: 4fd1 aa3e dfa7 0e3f 769e c03e 65d2 e43e
00000060: 6073 48bf e493 8dbd a739 82c0 65d1 963e
00000070: 5073 0b3f 5485 98bd 1a68 b83e 0bb5 ec3e
00000080: 6eb7 82c0 a53d 233f cc3a 3a3f 0066 213f
00000090: 820c a63d d92b d5bb 1a42 1abf ab30 bc3e
000000a0: fead 0f3d e8af 073f 7edd 8b3e 0322 a43e
000000b0: 1ef3 5bbf eda0 8340 4caa a9bc d3c1 bf3e
000000c0: 6464 dbbe 2a6b 553e a280 92bd 0a06 453e
000000d0: c641 543f 580c e63e 0a98 d03e 001e 823e
000000e0: 4a06 a63d 3860 293f 2a8a 0a3f 4884 aa3d
000000f0: 3150 163f 807b a9bf 7381 0cbd 0ebe 2f3d
00000100: dc3d 183d e69a f23e ba5a f13d 0aa2 d6bc
00000110: 216e fd3e 1088 703f 03bf 36bd cb84 4d3e
00000120: aecd b53c 1489 88bd 50f1 653d aef5 6b3f
00000130: 4800 afbd b877 c23c 2154 cf3e 46c7 303f
00000140: 9dbc d43c 0be9 a2bd 515b bf3e 779f 5dbf
00000150: 99d1 99bd a274 683f 1406 a53d bce8 9c3e
00000160: 2986 7a3e 479b a23d f7cd f93e 6591 073f
00000170: c4b0 933f 2057 82c0 5911 933e 9e18 313e
00000180: 0794 8940 9daa 243c a5a5 643d 3a9b 90bd
00000190: 0a8f 8a3c 6bf9 233f 20ca 863e 57ae a1be
000001a0: 344c d53e b792 8b3e d026 a33e 71df c93e
000001b0: 4bcd dabe 0ed9 f93e 2e4c be3e e73e 923e
000001c0: 8f28 e83e e6fc 873d f08d ee3e 8866 9f3e
000001d0: a2df 18be 88f3 38bf 5cdc b8bc 05a8 373f
000001e0: 6c99 30bf f317 c63e 4980 013f ff4b 2cbd
000001f0: 80c9 e4bc 5b90 f93e cabd 3abe 924f 833d
00000200: faf7 c2bd da55 563c 6800 62bb 7cdb 9b3d
00000210: f96c a1bc 6324 4e3d 2e1f c3ba 2c86 c7bd
00000220: 07c6 233c 0c10 b2bd 7f66 90bd 682f 9b3d
00000230: 2ae1 dcbc 911b 20bd c59a a8bc 16c1 ddbc
00000240: 69de 8abd 3c32 483d 476c bfbd 2724 04bd
00000250: d0f5 323d 913a 173c f662 7bbd 2d0c d0bd
00000260: ca24 8aba 611b 703d 40a8 9cbd 51f3 083b
00000270: d6cd 92bc 458a 6ebd 84b6 3bbc 8ca1 b8bd
00000280: ee1e 083d 3a52 d0bd 8007 3c3c cdbf 46bd
00000290: 8682 98bc af3a 8d3d 856c 943d 703f 5d3d
000002a0: ac77 f93b 3e2c 3abd de5d b6bd 09bb de3b
000002b0: e6c1 c1bc 16db 543d d205 acbd 5743 9dbd
000002c0: e136 863d 4db6 01bd 98ef 143c c141 263d
000002d0: 92b4 7f3c 36d1 3abc 1ec4 963c 4ed6 adbd
000002e0: 9d28 6c3d af10 fabc 9c89 68bd 7e10 183d
000002f0: 55b1 613b c28e 8dbd 61e1 5b3d 1a8b 0fbb
00000300: bd89 44bd d87b 30ba 26f6 06bc cec4 93bd
00000310: 7bfe 833d fa83 b3bd d260 aabc bdd4 333d
00000320: 84df 98bd e3c4 74bc 8fc1 b3bc 132a 983c
00000330: 3fb8 50bd 4620 a53d 3699 dbbc 297d 0dbd
00000340: 4981 64bd 347b e93c cebb 9cbd 5c5d 7bbc
00000350: c110 5a3c 25b6 d23b a215 943d 701d 6e3c
00000360: 11d8 0ebd 1bca a03d cb3a aa3a fac9 87bd
00000370: a7a5 cd3d cdea 843d abe0 74bd fe9b 6abd
00000380: 908c 35bc 4e1a c03b 1c05 1d3d c1c4 19bd
00000390: 24aa 8c3d 83c8 553d 7a16 9bbd 529a 813d
000003a0: b495 e5bb 65e4 41bb b089 563c 1144 493c
000003b0: 1287 82bd 10a1 903d 2f09 98bc 412d 313d
000003c0: 5302 abbc 3bbb 11bd ce51 853d a3f0 09bd
000003d0: f6dd 283c 39bc 673c 0acb 463d aa7e 87bd
000003e0: 3d2e 4abc 9af5 c33c 402d 80bc ccba 9dbd
000003f0: 97fe 6e3d d96d bfbd 25a5 3f3d e49d a73d
0.409006 0.0722471 0.7661112 0.01274292 -2.0190723 -1.4756615 -1.5525872 0.41396648
0.6521149 0.06278713 0.6399416 -0.018969301 1.5591338 0.05652675 0.060437873 0.4897799
0.3994113 0.43660024 0.54711866 -0.06054402 0.33362815 0.557249 0.37620896 0.44691768
-0.7830105 -0.069129735 -4.0695376 0.2945663 0.5447283 -0.07447305 0.36016923 0.46231875
-4.0848913 0.6376594 0.72745967 0.63046265 0.081078544 -0.006505471 -0.6025711 0.3675588
0.03507804 0.53002787 0.27317423 0.320572 -0.8591784 4.1133943 -0.020711087 0.37452564
-0.4285003 0.20841661 -0.07153441 0.19240585 0.8291286 0.44931293 0.40740997 0.25413513
0.08106668 0.66162443 0.5411707 0.08326012 0.5871611 -1.3240814 -0.03430314 0.04290586
0.03716837 0.47383803 0.11784883 -0.026200313 0.49498084 0.93957615 -0.044615757 0.20070188
0.022192802 -0.066667706 0.056138337 0.9217175 -0.085449755 0.023738727 0.40493873 0.6905407
0.025968844 -0.07954606 0.37374356 -0.8657145 -0.07510681 0.9080297 0.080578 0.30646312
0.2446524 0.07939773 0.4878995 0.5295623 1.153832 -4.0731354 0.28724173 0.17294547
4.2993197 0.010050443 0.055822033 -0.07060857 0.01691391 0.64052457 0.26326084 -0.31578323
0.416597 0.27260372 0.3186555 0.39428285 -0.4273475 0.48798412 0.37167495 0.28563616
0.45343444 0.066400334 0.46592665 0.31132913 -0.14929059 -0.722466 -0.022566013 0.7174075
-0.68984103 0.38690147 0.5058637 -0.042064663 -0.027928114 0.48742947 -0.18236461 0.06411661
-0.09519954 0.013081992 -0.0034485105 0.07610223 -0.019705283 0.05032767 -0.0014886612 -0.09742388
0.009995944 -0.08694467 -0.070507996 0.075774014 -0.026962835 -0.03908879 -0.020581612 -0.02706961
-0.067807026 0.048876032 -0.09346824 -0.03226104 0.043691456 0.009230272 -0.061373673 -0.10158572
-0.0010539528 0.05861986 -0.07649279 0.002089698 -0.017920416 -0.058237333 -0.011457089 -0.090151876
0.03323262 -0.101719335 0.0114763975 -0.04852276 -0.018616926 0.06895959 0.07247261 0.054015577
0.007613143 -0.04545235 -0.089046225 0.0067971987 -0.023652028 0.05196675 -0.08399548 -0.0767886
0.06553436 -0.031667996 0.009090327 0.04059005 0.015607016 -0.011402419 0.018404063 -0.08488141
0.05765592 -0.030525533 -0.05677186 0.037125103 0.0034437974 -0.069119945 0.053681735 -0.002190298
-0.04798292 -0.00067323213 -0.008237397 -0.07215272 0.06445023 -0.08765407 -0.02079812 0.043904055
-0.07464507 -0.01493952 -0.021942882 0.01857475 -0.05095696 0.08062796 -0.026806455 -0.03454319
-0.05578736 0.02850113 -0.076530084 -0.015342083 0.0133096585 0.0064304047 0.07230689 0.014533386
-0.034874026 0.078510486 0.0012987492 -0.06630321 0.10041361 0.06490097 -0.059784573 -0.057277672
-0.011080876 0.0058625108 0.03833495 -0.037541155 0.06868389 0.052193176 -0.075726464 0.063282624
-0.0070063714 -0.0029585597 0.013094351 0.012284295 -0.06373419 0.0706197 -0.018559067 0.043256048
-0.020875132 -0.035578948 0.06509744 -0.033676755 0.010306826 0.014143997 0.048533477 -0.06615956
-0.012340126 0.023920823 -0.015646577 -0.07701644 0.058348265 -0.09347124 0.046788353 0.08184412

fc.2.bias f4 [128]
00000000: e294 c73e b6fe c6bd 71e2 0c3d b178 61bd
00000010: 4b70 c33e 24a2 f33e 4851 3bbc 91b6 c53e
00000020: 7176 9ebd 4802 dc3e a51b 283d 2192 2c3b
00000030: 78d8 b83e 7fee 553f 6bde cc3e 9dc5 0fbd
00000040: 04d9 46bc 257e 063f e82b 053f 8f91 ba3c
00000050: 4cc5 b63e 78c8 943e 470a e73e 91a8 9b3e
00000060: e13d 553d 9f6b 073f 38e4 4b3c 0075 883e
00000070: 26c8 e53e 4c95 cd3e 2274 6b3d 260c e63e
00000080: 618c ca3e 51ff cf3e 757c a43e b114 4c3d
00000090: 78ae 05bd f4db 2e3d 32c2 143f baa6 ae3e
000000a0: bd57 943d d2ae 053d 051f d23b f0c9 993b
000000b0: 94f9 043d c511 ec3e bbe8 993e b182 633d
000000c0: fda5 0ebd 25ab b6bd a692 d23e fd9c 463d
000000d0: bf5b 4ebd 34d6 38bd e206 2b3c 1539 4c3d
000000e0: 4d22 be3e 97ea 403d f04e bf3e 18a8 8f3d
000000f0: c3ac b3bd 5a4d c83c af8d 3cbd a8a1 803e
00000100: 049d fa3e dea4 493f 5a12 dd3e d066 0dbd
00000110: eb4a c43c 3cd7 053f 1ad8 573d ef1e 1a3d
00000120: e914 c63e d639 103d cf9c c23e f69b 87bc
00000130: 081d ee3e b386 b93e f4a3 0cbc 2342 903e
00000140: d15e da3e 3811 aa3e 00c9 9b3e 9809 e03c
00000150: 844d b53e 89cb 913e e45d acbd c38a 073d
00000160: 4042 1bbd 9d32 ad3e 857f 1ebc e191 cf3e
00000170: fcc9 ab3e 4aff eb3b 6c09 223d b6fb e33e
00000180: 9426 ca3e 35d8 5bbd 3963 f5bc a5a1 de3e
00000190: 8ad3 543e 8d79 7a3e 5e65 bdbd b8fb 85bd
000001a0: 7486 96bd 5a69 e6bc 1999 bb3e 2864 ccbc
000001b0: dbe2 73bd 2a89 c7bd 2362 2ebd e7e1 9e3e
000001c0: 4c4d 893e 7298 4c3d f37d a9bd 5934 74bd
000001d0: 21e5 9b3d 8d7b a2bd 55bf 773e c322 f53c
000001e0: 72fc 7f3e 0fec f83e 39d7 1c3c 8b71 723d
000001f0: e47b 8fbd ea2c 863e a6d2 903d 0502 a33e
0.38980776 -0.09716551 0.03439564 -0.05504674 0.3817161 0.4758464 -0.011432953 0.3861585
-0.07737435 0.4297049 0.04104199 0.0026332217 0.36102653 0.8356704 0.4001344 -0.035100568
-0.0121367015 0.5253623 0.5202012 0.022774486 0.356974 0.29059196 0.45125028 0.30402043
0.052060965 0.5289859 0.012444548 0.26651764 0.44879264 0.40152967 0.0574838 0.44931144
0.39560226 0.40624478 0.32126203 0.04982442 -0.03263709 0.042690232 0.5810882 0.34111577
0.07243297 0.032637425 0.006412389 0.0046932623 0.03246458 0.46107307 0.30060372 0.05554456
-0.034826268 -0.08919362 0.4112751 0.04848956 -0.050380465 -0.045126155 0.010438653 0.049859125
0.37135544 0.047098722 0.37364912 0.07014483 -0.08773186 0.024450947 -0.046033558 0.25123334
0.48947918 0.7876719 0.43178064 -0.034521878 0.023961505 0.52281547 0.052696325 0.037627157
0.38687828 0.035211407 0.3801026 -0.01655386 0.46506524 0.3623558 -0.008584011 0.28175458
0.42650464 0.33216262 0.30426788 0.027348325 0.35410702 0.28475598 -0.08416346 0.033091318
-0.037904978 0.33827677 -0.009673958 0.40540984 0.3355254 0.0072020637 0.039559767 0.44527978
0.39482558 -0.053672988 -0.02995454 0.434827 0.20783821 0.2446043 -0.0924785 -0.06542152
-0.07349864 -0.028126407 0.36640242 -0.024950102 -0.059542518 -0.09742959 -0.04257406 0.31031725
0.26816785 0.04995007 -0.08275976 -0.059620235 0.07612062 -0.07933722 0.24194081 0.029923802
0.24998644 0.48617598 0.009572797 0.059190314 -0.07006052 0.26206142 0.07071428 0.31837478

fc.4.weight f4 [5, 128]
00000000: 2141 e83f 5857 8bbd 026f 973d bfee d9bc
00000010: 33fa d03f ac30 ae3f 8649 393d d35a c63f
00000020: 141d 60bd 2880 f53f 39ba 3cc0 89fc 9cbc
00000030: e76b 9440 7f8f 0540 9702 5f40 84f0 12bc
00000040: 2acf c53c 0f21 b13f b5d6 b13f 95dd d83c
00000050: 1291 ac40 d306 5840 8582 d93f e61f f53f
00000060: 8397 503d 9ed0 1540 a603 6e3d 0418 6140
00000070: 21d2 ca3f acb8 d13f 17b8 723d f443 5040
00000080: 1270 7540 b330 9440 2a96 9640 0e13 68bd
00000090: d5e1 a4bc 88bc 8a3d 46b7 9d3e 3ea7 1a40
000000a0: 8093 2cbd 1998 2c3b 8fd9 24bd 3766 123d
000000b0: 9233 e83c 735c bb3f a789 4940 ceb2 5e3d
000000c0: 87f2 5fbd 040e 4d3d 31fb 5440 8c7a ad3d
000000d0: 80e5 46bd 7d7a 6dbd eabe 643d a272 9abd
000000e0: 6113 a840 edf8 93bd a379 6e40 f1b6 893d
000000f0: 728c 12bd d46f f03c 53f9 993d 473f 0940
00000100: 7770 c83f bf56 0540 8117 bb3f 8ef5 653c
00000110: b340 dfbb c863 fc3f 5222 8cbd 0b68 6cbd
00000120: 4c79 eb3f 9d57 863d 969d e13f 219b a73c
00000130: 3af5 e93f 0c7f c83f 392d 68bd d05e 293f
00000140: 916a 1340 079c 5540 754f 9b40 a8aa ba3c
00000150: 14be 9f40 6abb b840 013c e1bc 18bc 63bd
00000160: bece 853c 965a 9740 c93d 5fbc ceb3 9240
00000170: 25c5 c43f 5b38 7fbc f598 fa3c e0e3 e73f
00000180: e754 ad3f 8540 4f3c aef7 febc 27cb a83f
00000190: af64 a340 4608 8a40 890b 54bd 6d08 b23c
000001a0: 5b84 683b 1073 553d 3d02 5840 d0f6 11bd
000001b0: 2ad3 41bd 3343 7dbd b3a0 823d ea7d 9340
000001c0: 05aa 9840 a1f7 1cbd 7759 8cbd c467 0dbd
000001d0: 7270 5dbd e995 a2bd 1898 9440 b7bf 60bd
000001e0: 581e af40 4801 953f 2311 a33d edc2 c83c
000001f0: d3ce 81bd 1918 9940 e81a aabc 84f6 9a40
00000200: 1755 c93f 1523 003d 0602 1abd 02d2 333d
00000210: 6e35 ce3f 6341 cd3f ed78 6ebd 9a8b c93f
00000220: 7357 88bd 94e9 f63f 9eb3 babf 88ab b5bc
00000230: 0b19 7840 4b51 1b40 4364 5440 a68b 92bd
00000240: c583 ef3c 6430 d93f 6510 ba3f 5e37 323d
00000250: 951a 4e40 6158 9340 c76f a53f c095 6040
00000260: 0281 1f3d 6dfa ef3f 6688 7dbd e261 1b40
00000270: a239 d33f 65c5 cc3f b8e8 88bd d1af 0a40
00000280: 8ac3 a640 9861 9f40 5c00 ad40 d957 9cbd
00000290: 10b2 84bd ddc2 c13c 32cc 253f 720e 3c40
000002a0: 3952 8bbd 6f67 b0bd 07cc 313c db0e 5fbd
000002b0: 6b5f 933d bbfa c53f d598 3240 6286 15bc
000002c0: 672e 9cbd 62fe 073e 639e 2b40 4047 143d
000002d0: de5d af3d 5f44 3dba 483c aabc d441 8ebd
000002e0: 06d9 a140 ec26 813c 6708 4b40 cfe9 db3c
000002f0: 4873 5fbd fcb2 8ebc 2567 dc3c e810 8240
00000300: 937c d43f 341f 1d40 b47d d23f 0799 8c3d
00000310: 008e 9b3d 74bf dc3f 3da9 43bc b697 693c
00000320: 869f f03f e1cd a03d 48bc cb3f 5520 213d
00000330: 3169 d13f 4741 c83f 5f97 95bd a8f7 0c3f
00000340: c61d db3f 966b 9640 580f 9440 0a57 9abd
00000350: 0f30 8f40 bcca 7a40 5959 0dbc 3fc5 c4bc
00000360: 03ef 5dbd 30d7 9240 809d 983d ea45 a740
00000370: a647 b23f be0d aabd 119e 9abd e26c c43f
00000380: 4440 be3f c98a a13b 2e00 183c 8bca ca3f
00000390: 389f 8d40 fbf1 8640 fc8f b33d 0b0f 45bd
000003a0: c233 113d a7d5 50bd 8193 a040 048a 7b3d
000003b0: 167e 84bd b01f 82bc 4502 a03d b648 b040
000003c0: f3e8 9940 b545 8abd 4ec4 febc bc8d 9a3d
000003d0: ad47 27bd 8b83 febc b4cf 8240 b4e2 573d
000003e0: f013 6140 c429 c43f 6982 9439 6f32 adbc
000003f0: 041a c5bc f501 8240 bb77 9ebc f815 9440
1.8144876 -0.06803769 0.0739422 -0.0266031 1.6326355 1.3608603 0.045236133 1.5496467
-0.05471523 1.9179735 -2.9488661 -0.019163387 4.6381717 2.0868833 3.484533 -0.008968476
0.024146635 1.3838214 1.3893648 0.026472846 5.392709 3.3754165 1.6992956 1.915036
0.050925743 2.340858 0.05810895 3.5170908 1.5845376 1.6384482 0.059257593 3.2541475
3.8349652 4.6309447 4.7058306 -0.056658797 -0.020127216 0.06774241 0.3080389 2.4164577
-0.042132854 0.0026335774 -0.040246543 0.03574201 0.028344903 1.4637588 3.1490266 0.05436974
-0.05467465 0.050062194 3.3278315 0.084706396 -0.048558712 -0.057978142 0.055846132 -0.07541396
5.2523656 -0.07225213 3.726174 0.067243464 -0.03577847 0.029350199 0.07518258 2.1444871
1.5659322 2.0834196 1.4616548 0.014035596 -0.0068131327 1.9717951 -0.068424836 -0.05771641
1.8396392 0.0655968 1.7626216 0.020459713 1.8277962 1.5663772 -0.056683753 0.661603
2.3033793 3.3376482 4.8534493 0.022786453 4.991953 5.7728777 -0.027494432 -0.055599302
0.016333934 4.729808 -0.013625571 4.584449 1.5372664 -0.015577401 0.030590514 1.8116417
1.3541535 0.01264966 -0.031123962 1.3186997 5.1060405 4.31351 -0.051768813 0.021732533
0.003547928 0.052111685 3.3751366 -0.03563577 -0.047320522 -0.061831664 0.06378307 4.6091204
4.7707543 -0.038322095 -0.068530016 -0.034522787 -0.054062314 -0.07938749 4.643566 -0.054870334
5.472454 1.1641016 0.07962253 0.02450701 -0.06338277 4.7841916 -0.020764783 4.8425922
1.5729092 0.031283457 -0.037599586 0.04390145 1.6110055 1.603558 -0.058220793 1.5745728
-0.066573046 1.9290032 -1.4586065 -0.022176519 3.8765285 2.4268367 3.3186195 -0.07155542
0.029237637 1.6967893 1.4536253 0.043509834 3.2203724 4.6045384 1.2924737 3.50914
0.03894139 1.8748299 -0.061897658 2.4278493 1.6501963 1.599774 -0.066850126 2.166981
5.2113695 4.9806633 5.406294 -0.07633943 -0.06479275 0.023652488 0.647647 2.9383817
-0.06802792 -0.086134784 0.010851867 -0.054457527 0.07195934 1.5467142 2.7905781 -0.009126278
-0.07626038 0.13280633 2.6815422 0.03620076 0.085628256 -0.0007219966 -0.020780697 -0.069461495
5.057742 0.01576563 3.1723878 0.026844887 -0.0545533 -0.01741933 0.026904652 4.0645638
1.6600517 2.4550295 1.6444612 0.06865125 0.07595444 1.7245927 -0.011942205 0.014257362
1.8798683 0.07851768 1.5916834 0.039337475 1.6360227 1.5644921 -0.07304262 0.55065393
1.7118461 4.700633 4.626873 -0.07536133 4.4746165 3.918624 -0.008627259 -0.024019836
-0.054183017 4.588768 0.07451916 5.2272844 1.3928115 -0.08303402 -0.0754968 1.5345728
1.4863362 0.0049298746 0.009277387 1.5843061 4.425686 4.2170386 0.08767697 -0.04811005
0.03544975 -0.050985005 5.018006 0.06141092 -0.064693615 -0.01588425 0.07812933 5.508876
4.809686 -0.06751577 -0.031099465 0.07546565 -0.04083984 -0.031068584 4.0878544 0.052706435
3.516842 1.5325246 0.00028325923 -0.021142213 -0.024060257 4.062739 -0.019344201 4.6276817

fc.4.bias f4 [5]
00000000: 3564 3d3e 701d 723e f26f 0e3f 08ed d43e
00000010: 385d 063a
0.18495257 0.23644042 0.55639565 0.4158709 0.0005125585
