frogger_dqn.pth (torch, 75333 bytes, 6 tensors)

fc.0.weight f4 [128, 6]
0.16249008 -0.33503816 -0.34123537 0.18144844 -0.0787793 0.1659523 -0.19825642 0.100504346
-0.09775242 0.13665102 0.021842767 0.39259735 -0.28351194 0.112280004 -0.14348485 -0.19096148
-0.024634453 0.089424424 -0.14204283 -0.0339808 -0.17227565 0.05532517 -0.39610904 0.24759692
-0.21672326 0.28978705 0.006072667 -0.21143262 -0.21824585 0.32011312 0.35536095 0.26699165
0.10533927 0.18348794 0.34576562 0.13998583 0.079715945 -0.38252333 0.25311056 0.20992589
-0.14360806 0.24830326 -0.08107415 -0.0656213 -0.35042262 -0.11390933 0.10756218 0.17855987
0.26822013 0.3673044 -0.16922417 0.18324067 0.40672562 0.0026753705 0.19474354 -0.086617604
0.35786813 0.052521415 -0.30734846 0.33356044 0.39226153 0.3155802 0.18020219 -0.3587177
0.24109748 0.08934554 -0.09618953 -0.31454736 0.16478454 -0.11804188 0.09092006 0.3401749
0.2997017 -0.38998282 0.14121166 -0.18827789 0.11493333 0.31818825 0.16547458 0.372025
0.0911341 0.106290266 0.39692023 0.33476534 -0.111455046 -0.014835451 0.37428308 -0.050749112
0.26033458 -0.038525667 -0.10985468 0.1716895 -0.1060279 0.3206145 0.11248538 -0.39405024
-0.29121402 0.24645354 -0.025746444 -0.29445285 0.0042329575 0.19581977 -0.061974883 0.23312277
0.12177703 0.2625242 -0.08907529 0.14327538 0.34710568 -0.32070383 -0.28978536 -0.14336614
-0.34072635 0.37215617 -0.111336105 -0.22349356 -0.38580734 -0.10849911 -0.39338905 0.2651067
-0.26005766 -0.15114585 0.22168685 0.2136144 -0.12587269 -0.12509485 -0.06370426 0.38447043
-0.3582147 0.3561816 0.36397177 -0.40207693 0.02279922 0.15064877 0.08653224 -0.37144753
-0.36345705 0.24154907 -0.21932042 0.26988328 -0.27445468 -0.11430732 0.079354934 -0.05715164
-0.27775264 -0.13617404 -0.05754521 0.24712154 -0.021619337 0.08896282 -0.029539209 0.1365785
0.115665086 -0.14357692 0.21392788 0.23255059 -0.14264041 -0.20462401 -0.10379277 -0.11219868
-0.2658084 -0.12450851 0.15421154 0.24401268 -0.3541236 0.27502564 0.23207214 0.085233904
0.18595569 -0.2671748 -0.39916325 -0.25292704 0.21007603 0.12317513 0.23654264 0.28165781
-0.11422298 -0.21883978 0.17383805 -0.07120964 0.28941372 -0.3842908 -0.28238013 0.19602884
-0.020034447 0.11534671 -0.22488515 0.020906998 0.095585816 0.064864196 -0.37423357 0.21565512
-0.14159028 0.25168255 0.0521697 0.24138656 -0.2606136 0.34690088 -0.07993777 -0.13835393
0.32597467 0.3213718 -0.0036858919 0.38792244 0.021257985 0.3048913 -0.030271452 0.047730006
-0.22067137 0.32002854 0.22904865 -0.22154728 0.3300134 -0.11823368 -0.056375306 -0.3747876
-0.39995274 -0.21139525 -0.2878414 0.36050442 -0.13005704 -0.29390904 0.21798947 -0.09452726
-0.3663675 -0.03336643 0.06731224 -0.12630437 -0.3793265 0.30230036 0.022766223 -0.17102383
-0.30621535 -0.20844798 0.24848962 0.1582726 -0.12004399 -0.16984263 0.20319948 -0.25014126
-0.14434819 0.20227344 -0.33860025 -0.31548133 -0.14706556 0.18638776 -0.18644923 -0.016093785
0.28663474 -0.35143963 0.40589598 0.21268901 0.17805037 0.1304837 -0.26007634 -0.33771163
00000000: cd63 263e 1f8a abbe 67b6 aebe 9fcd 393e
00000010: 0b57 a1bd 66ef 293e bb03 4bbe 39d5 cd3d
00000020: 6c32 c8bd 3fee 0b3e 9aef b23c 8502 c93e
00000030: 7a28 91be 0ff3 e53d b1ed 12be 688b 43be
00000040: 31ce c9bc 2724 b73d ad73 11be 742f 0bbd
00000050: 0769 30be a59c 623d cece cabe 0c8a 7d3e
00000060: b4ec 5dbe f85e 943e 39fd c63b cb81 58be
00000070: d77b 5fbe dee5 a33e dff1 b53e 21b3 883e
00000080: 1dbc d73d 43e4 3b3e 3108 b13e 7258 0f3e
00000090: 1d42 a33d 19da c3be b597 813e d0f6 563e
000000a0: fe0d 13be 3643 7e3e 340a a6bd 7664 86bd
000000b0: 986a b3be 4b49 e9bd 8f49 dc3d 66d8 363e
000000c0: 2654 893e 530f bc3e 1a49 2dbe 71a3 3b3e
000000d0: 573e d03e 4555 2f3b da6a 473e 9264 b1bd
000000e0: 7e3a b73e b220 573d c75c 9dbe 6fc8 aa3e
000000f0: 81d6 c83e ba93 a13e ec86 383e d9a9 b7be
00000100: 42e2 763e cbfa b63d 04ff c4bd 5a0c a1be
00000110: 47bd 283e f1bf f1bd 4c34 ba3d 682b ae3e
00000120: 8072 993e d4ab c7be ca99 103e ebcb 40be
00000130: 2a62 eb3d 92e9 a23e 2b72 293e 107a be3e
00000140: 84a4 ba3d b6ae d93d 2139 cb3e 5d66 ab3e
00000150: 8b42 e4bd 6410 73bc 08a2 bf3e 4dde 4fbd
00000160: 934a 853e 17cd 1dbd 7efb e0bd 5fcf 2f3e
00000170: 2825 d9bd 9527 a43e bc5e e63d f4c0 c9be
00000180: 011a 95be 515e 7c3e 35ea d2bc 86c2 96be
00000190: 9fb4 8a3b fa84 483e 60d9 7dbd bcb7 6e3e
000001a0: 3c66 f93d 9269 863e 1b6d b6bd c8b6 123e
000001b0: d6b7 b13e 4b33 a4be bf5e 94be 93ce 12be
000001c0: af73 aebe 418b be3e 2f04 e4bd 7fdb 64be
000001d0: 8a88 c5be c834 debd 4a6a c9be 11bc 873e
000001e0: 4726 85be fac5 1abe e101 633e bcbd 5a3e
000001f0: c5e4 00be dd18 00be 6177 82bd 4fd9 c43e
00000200: eb67 b7be 6f5d b63e 825a ba3e 07dd cdbe
00000210: 6ec5 ba3c ac43 1a3e d137 b13d 5f2e bebe
00000220: 0b17 babe a458 773e 8895 60be 242e 8a3e
00000230: 5385 8cbe f519 eabd d784 a23d d717 6abd
00000240: 9835 8ebe 3571 0bbe 87b4 6bbd 6e0d 7d3e
00000250: 091b b1bc 2432 b63d 36fc f1bc 3cdb 0b3e
00000260: d1e1 ec3d d405 13be e90f 5b3e be21 6e3e
00000270: 5410 12be f588 51be 4e91 d4bd 6cc8 e5bd
00000280: 0a18 88be 51fe febd a1e9 1d3e 76de 793e
00000290: b04f b5be 29d0 8c3e 52a4 6d3e 1d8f ae3d
000002a0: 2b6b 3e3e 23cb 88be 205f ccbe a77f 81be
000002b0: 2c1e 573e 3e43 fc3d 3c38 723e 7435 903e
000002c0: bded e9bd 8917 60be 9a02 323e 5cd6 91bd
000002d0: 092e 943e c4c1 c4be 2194 90be c9bb 483e
000002e0: 481f a4bc e53a ec3d 4b48 66be 2745 ab3c
000002f0: 7fc2 c33d 85d7 843d 8b9b bfbe b2d4 5c3e
00000300: 0bfd 10be 89dc 803e e5af 553d 0a2e 773e
00000310: 256f 85be fe9c b13e 6ab6 a3bd a7ac 0dbe
00000320: 27e6 a63e d88a a43e 018f 71bb c59d c63e
00000330: 3a25 ae3c b61a 9c3e d6fb f7bc 8a80 433d
00000340: adf7 61be c8da a33e bb8b 6a3e 4add 62be
00000350: 84f7 a83e 8024 f2bd cbe9 66bd 29e4 bfbe
00000360: 9bc6 ccbe ff77 58be f35f 93be 0994 b83e
00000370: ac2d 05be 3f7b 96be a238 5f3e 8297 c1bd
00000380: 8594 bbbe 3dab 08bd 00db 893d ef55 01be
00000390: 1537 c2be 1dc7 9a3e 3b80 ba3c df20 2fbe
000003a0: 42c8 9cbe 6373 55be 1074 7e3e 3612 223e
000003b0: a0d9 f5bd 3aeb 2dbe 8613 503e 8412 80be
000003c0: 03d0 13be c520 4f3e 035d adbe c586 a1be
000003d0: 5b98 16be 6fdc 3e3e 8cec 3ebe 1dd7 83bc
000003e0: cac1 923e e5ef b3be 99d1 cf3e 26cb 593e
000003f0: d652 363e 859d 053e ba28 85be 8ae8 acbe

fc.0.bias f4 [128]
0.3484713 -0.14867283 -0.020243425 -0.4005249 -0.27066693 -0.2573913 -0.40468627 -0.20759772
-0.16485466 0.31711498 -0.33213025 0.009925049 -0.108207546 0.0023145534 0.36411592 -0.26632085
0.12904598 0.266774 0.22240546 0.29748374 0.25499955 -0.18659435 -0.36713973 -0.15616609
-0.031955134 0.119636945 -0.3921611 -0.0017250015 0.19117995 0.13490173 0.15047249 0.017662274
0.14001113 0.23903522 0.09114437 -0.33855504 -0.33889455 -0.28526205 0.061100677 0.34637466
-0.083983265 -0.015894007 -0.3044458 0.37827045 -0.35057738 0.046585504 -0.29229748 0.09435322
0.2199511 0.33461466 0.07572963 0.13151895 -0.01452296 0.35356802 0.031504918 -0.36825782
0.29151532 -0.12069891 -0.040193677 0.15026912 -0.3312896 0.003249495 0.37850094 -0.25853035
-0.35474342 0.17996016 -0.2967365 0.04255675 0.0026250975 0.119357884 0.19069168 0.25273514
0.3216452 -0.2792432 0.14341709 -0.16412188 0.3174182 0.075349644 -0.17842132 -0.11218403
-0.24273494 -0.24247131 0.21012129 0.17965035 0.31455314 0.18489192 0.370816 0.19279554
-0.27920198 0.34814438 -0.027694972 0.26011488 -0.20410182 -0.31958488 -0.35525024 0.1229334
0.12907386 0.20803732 -0.12223201 0.3989719 -0.062117815 0.20095272 -0.07270776 -0.12463865
0.101291046 -0.10756427 0.3390509 -0.11745102 -0.38247275 -0.08462888 -0.14356163 0.116118856
-0.1749552 -0.17317599 0.01184063 0.09111872 0.10917086 -0.21725558 0.3676084 0.33053213
-0.012432178 -0.23204626 0.11928678 -0.029582134 -0.1625716 0.257253 -0.063719444 0.20653667
00000000: d56a b23e b13d 18be 8ad5 a5bc 9a11 cdbe
00000010: db94 8abe cbc8 83be 0a33 cfbe 7f94 54be
00000020: a9cf 28be e55c a23e fa0c aabe ac9c 223c
00000030: eb9b ddbd c3af 173b 676d ba3e 355b 88be
00000040: a124 043e 9a96 883e 42be 633e ca4f 983e
00000050: 4d8f 823e 9712 3fbe bdf9 bbbe 01ea 1fbe
00000060: 63e3 02bd 3704 f53d 57c9 c8be 7219 e2ba
00000070: adc4 433e ae23 0a3e 7615 1a3e 79b0 903c
00000080: 145f 0f3e a6c5 743e e6a9 ba3d 1657 adbe
00000090: 9683 adbe de0d 92be b444 7a3d 0558 b13e
000000a0: 6bff abbd 2634 82bc 52e0 9bbe aaac c13e
000000b0: e17e b3be 71d0 3e3d 04a8 95be 433c c13d
000000c0: dc3a 613e 9d52 ab3e 2318 9b3d e7ac 063e
000000d0: b6f1 6dbc de06 b53e 4d0b 013d 4a8c bcbe
000000e0: 7f41 953e fd30 f7bd 20a2 24bd 26e0 193e
000000f0: ca9e a9be 7bf5 543b e0ca c13e 175e 84be
00000100: eea0 b5be 7a47 383e d9ed 97be fd4f 2e3d
00000110: d409 2c3b e871 f43d ae44 433e 8066 813e
00000120: aeae a43e f7f8 8ebe eedb 123e 910f 28be
00000130: a384 a23e ea50 9a3d 14b4 36be bec0 e5bd
00000140: 828f 78be 664a 78be 092a 573e 43f6 373e
00000150: 1c0d a13e 4f54 3d3e 98db bd3e 326c 453e
00000160: 90f3 8ebe fb3f b23e 91e0 e2bc c72d 853e
00000170: 1100 51be a1a0 a3be 5ce3 b5be 82c4 fb3d
00000180: f02b 043e bc07 553e c754 fabd 0b46 cc3e
00000190: 406f 7ebd 8dc6 4d3e cee7 94bd 8c42 ffbd
000001a0: ae71 cf3d a84a dcbd 1498 ad3e 298a f0bd
000001b0: 78d3 c3be e851 adbd d201 13be b9cf ed3d
000001c0: 7527 33be 0c55 31be 34ff 413c 749c ba3d
000001d0: f994 df3d 3f78 5ebe 2b37 bc3e 823b a93e
000001e0: 55b0 4bbc 899d 6dbe a14c f43d 3b56 f2bc
000001f0: 2b79 26be aab6 833e 577f 82bd 597e 533e

fc.2.weight f4 [128, 128]
-0.028721012 -0.060536467 -0.049725514 -0.008345603 -0.07232957 -0.042170145 -0.014042266 -0.018716393
0.010237259 0.03208198 0.009853691 0.021461006 0.04314696 -0.025017938 -0.03786517 0.08314013
-0.021533499 0.05372273 -0.058827665 -0.042808913 -0.044058524 0.03204271 0.028031172 -0.023948597
0.023533631 -0.00760209 -0.024487088 0.016045643 -0.06508898 0.017886933 0.054357506 0.055864677
0.002023723 0.012094238 -0.059993234 0.009388442 -0.056661233 -0.0032996978 -0.055787813 -0.07790565
-0.028345441 0.037366405 0.02445673 0.044297308 -0.018804796 0.067769095 0.021669285 0.0585457
-0.06328632 0.07899152 0.043383744 -0.055612557 -0.053345814 -0.04702372 -0.02763652 0.06432628
-0.06565616 -0.03244944 0.039975293 -0.05939142 -0.0071635838 0.06778268 -0.027344327 -0.018985953
-0.078295514 -0.08086914 0.07398983 0.08176968 0.04226817 0.085415445 -0.07017299 0.07141174
0.06831337 -0.058828454 0.05646056 0.05913386 0.060950126 0.054907512 -0.025231473 -0.048107877
0.029647304 0.010390905 0.0004306038 -0.079994515 -0.00042647342 -0.059848197 -0.07518204 0.021875521
0.035212133 0.04734294 0.04462837 0.04874656 0.048928898 0.086679585 0.055494577 0.011721692
0.0055402243 -0.021657305 -0.033503372 0.016013326 0.07871605 -0.04150099 0.016114816 -0.03105776
0.01930428 -0.00481415 0.06779534 -0.06865518 -0.03645793 0.037161496 0.04240078 -0.02738246
-0.07674149 0.045707647 0.0160081 -0.042328123 0.038267292 -0.05999571 -0.039580654 0.017789204
0.07912413 -0.081485674 0.010300511 0.06359955 -0.08725179 0.07332977 -0.04921579 0.028733708
0.028661184 0.043851815 -0.033371873 -0.008319303 0.067514874 -0.07214141 0.076151855 -0.002278701
-0.054433666 -0.067574285 0.074116 0.02875888 0.052779812 0.017373858 -0.03684315 0.020741243
0.044319846 0.053705662 -0.03773873 0.0093860505 0.045191664 -0.06290736 -0.030108623 0.052357364
0.036293134 -0.07461953 0.03673552 0.086624846 0.01925346 -0.05037344 0.047812924 -0.022867225
-0.014865668 -0.041556116 -0.041256696 0.059886802 -0.038735818 0.08337798 0.038271394 0.053879444
0.017782418 -0.033072695 -0.018293839 -0.06433778 -0.035616416 -0.038231775 0.06139626 -0.06225475
0.007315523 -0.055319592 0.021040212 0.004981241 0.076340035 -0.045088496 -0.0012315941 -0.08276047
-0.057685897 -0.02014396 0.025812669 0.07302523 -0.08517982 0.08352342 -0.033935893 -0.0017450692
0.013725764 -0.06525809 -0.06780672 -0.008610822 -0.02130301 -0.066377744 -0.0010004819 -0.03463316
-0.011212631 -0.07624465 -0.08606155 0.013687905 0.06584641 0.013869959 0.08800634 -0.07851331
0.027473064 0.07723775 -0.02521904 0.071537055 0.03533045 -0.034287926 0.03293318 0.043483526
-0.01975038 -0.04751112 0.033952594 -0.011782425 -0.018425928 0.02240166 -0.07931296 -0.04003296
-0.046446733 -0.0003597971 0.03211044 0.088363394 0.08716384 0.04475482 0.08223538 -0.08113618
-0.035284173 -0.021360697 -0.0433128 -0.07309393 -0.028924422 -0.04548606 0.07958107 -0.057810567
0.045682967 0.053777512 0.06613128 -0.036742527 -0.04240466 0.033537205 0.039063364 -0.01786705
0.06296039 -0.08305019 -0.08183227 0.0062093264 0.012819712 0.08008113 0.060898643 0.010179149
00000000: 5448 ebbc 16f5 77bd fbac 4bbd ffbb 08bc
00000010: 8721 94bd 9aba 2cbd 8811 66bc 1f53 99bc
00000020: 2dba 273c 6568 033d 6071 213c fece af3c
00000030: deba 303d 6bf2 ccbc 8218 1bbd 5f45 aa3d
00000040: 0567 b0bc 5e0c 5c3d 47f5 70bd 6658 2fbd
00000050: b676 34bd 373f 033d a1a1 e53c d92f c4bc
00000060: 9ac9 c03c f41a f9bb 2599 c8bc 2772 833c
00000070: 5f4d 85bd 9e87 923c faa5 5e3d 5cd2 643d
00000080: 70a0 043b e926 463c 77bb 75bd fbd1 193c
00000090: 9c15 68bd be3f 58bb c381 64bd ff8c 9fbd
000000a0: b334 e8bc 840d 193d 7b59 c83c 1871 353d
000000b0: 840c 9abc 86ca 8a3d c983 b13c 9ecd 6f3d
000000c0: 429c 81bd 4ec6 a13d 27b3 313d fec9 63bd
000000d0: 2481 5abd f29b 40bd fc65 e2bc 7fbd 833d
000000e0: bd76 86bd b4e9 04bd 22bd 233d 6b44 73bd
000000f0: 7fbc eabb a5d1 8a3d 3601 e0bc 6e88 9bbc
00000100: 6659 a0bd b89e a5bd fb87 973d dd76 a73d
00000110: 6321 2d3d 4bee ae3d dbb6 8fbd 5140 923d
00000120: e1e7 8b3d 1bf6 70bd 3043 673d 5936 723d
00000130: d7a6 793d b3e6 603d 3cb2 cebc c40c 45bd
00000140: e7de f23c 9d3e 2a3c aac2 e139 2ad4 a3bd
00000150: 4b98 dfb9 6223 75bd 0bf9 99bd 4b34 b33c
00000160: 993a 103d acea 413d 3dcc 363d 79aa 473d
00000170: ab69 483d 1185 b13d 484e 633d 570c 403c
00000180: c58a b53b a96a b1bc d53a 09bd 612e 833c
00000190: e135 a13d f1fc 29bd 3803 843c d86c febc
000001a0: 0224 9e3c 04c0 9dbb 49d8 8a3d 169b 8cbd
000001b0: e954 15bd a736 183d 71ac 2d3d 2e51 e0bc
000001c0: a42a 9dbd f137 3b3d 6b23 833c 4160 2dbd
000001d0: 2abe 1c3d 10be 75bd 531f 22bd aaba 913c
000001e0: d50b a23d f6e1 a6bd 79c3 283c 7b40 823d
000001f0: 11b1 b2bd eb2d 963d 7f96 49bd f462 eb3c
00000200: dcca ea3c f69d 333d f2b0 08bd b04d 08bc
00000210: 3d45 8a3d e0be 93bd 81f5 9b3d 4256 15bb
00000220: d6f5 5ebd 6364 8abd 21ca 973d be97 eb3c
00000230: a52f 583d 9f53 8e3c d8e8 16bd 8ae9 a93c
00000240: ba88 353d 78fa 5b3d ed93 1abd f3c7 193c
00000250: e51a 393d 93d5 80bd 5ca6 f6bc ad74 563d
00000260: 1ca8 143d 20d2 98bd fc77 163d 5e68 b13d
00000270: 6fb9 9d3c 6154 4ebd 7cd7 433d 0c54 bbbc
00000280: 218f 73bc bf36 2abd c8fc 28bd dd4b 753d
00000290: 73a9 1ebd 13c2 aa3d 77c2 1c3d b1b0 5c3d
000002a0: 6fac 913c 3c77 07bd f6dc 95bc 87c3 83bd
000002b0: 85e2 11bd ec98 1cbd a57a 7b3d d6fe 7ebd
000002c0: 0eb7 ef3b cc96 62bd 865c ac3c ae39 a33b
000002d0: 2a58 9c3d b7ae 38bd 716d a1ba 527e a9bd
000002e0: 0c48 6cbd f204 a5bc 1775 d33c 408e 953d
000002f0: c272 aebd 540e ab3d 5d00 0bbd ceba e4ba
00000300: 07e2 603c 09a6 85bd 40de 8abd 6814 0dbc
00000310: a683 aebc 0ef1 87bd 9a22 83ba 80db 0dbd
00000320: 2fb5 37bc 2826 9cbd 0a41 b0bd 3c43 603c
00000330: 7cda 863d d33e 633c ab3c b43d 96cb a0bd
00000340: 310f e13c d32e 9e3d 2998 cebc 0582 923d
00000350: a9b6 103d 7f71 0cbd f1e4 063d c81b 323d
00000360: 8dcb a1bc 059b 42bd e011 0b3d 130b 41bc
00000370: f9f1 96bc b083 b73c d56e a2bd 9af9 23bd
00000380: ee3e 3ebd 26a3 bcb9 3d86 033d def7 b43d
00000390: f582 b23d d550 373d 066b a83d ba2a a6bd
000003a0: 2386 10bd a1fc aebc c368 31bd 45b2 95bd
000003b0: e9f2 ecbc 974f 3abd 66fb a23d c6ca 6cbd
000003c0: 101e 3b3d cf45 5c3d d66f 873d 557f 16bd
000003d0: 82b0 2dbd 4f5e 093d e800 203d eb5d 92bc
000003e0: 60f1 803d 3816 aabd ad97 a7bd 9b77 cb3b
000003f0: c509 523c 9301 a43d db70 793d 72c6 263c

fc.2.bias f4 [128]
0.08279919 -0.004387824 0.059923314 0.0040200823 0.0211613 0.054125816 -0.0869614 -0.0122054955
0.0793283 0.04339097 0.07939135 0.022468073 -0.052528482 0.026351864 0.050930336 -0.08315478
-0.06142887 -0.045497954 0.0048078806 -0.07152199 -0.045886487 0.06810663 0.009893593 -0.056901332
-0.020518793 0.076779164 -0.057478532 0.03508919 0.009239211 0.019071028 -0.067667484 0.069246784
0.02557318 -0.03009228 -0.0606139 0.0032772862 -0.060986817 0.047152754 0.018970802 0.024900021
0.017618984 0.02733201 0.05183041 -0.04932784 0.08606554 -0.06330197 0.054982353 0.078227445
-0.033622373 0.06096454 0.03770454 0.06179943 -0.027620051 -0.0009369771 0.03504421 -0.08783619
0.016481789 0.04437884 -0.07235994 -0.014812995 0.049462445 -0.033239584 -0.05885347 0.040933378
0.0152513 0.049240362 0.08366807 0.013345209 0.010158412 -0.083518416 0.046103816 0.04598281
0.06694691 0.008037099 -0.08466823 -0.017263053 0.0813534 -0.0076155877 -0.0039467993 0.02872766
-0.03324027 -0.0076550688 -0.032878716 0.056086782 0.012477195 -0.040777307 -0.042799883 0.03621904
-0.06514513 0.077386715 0.078822315 0.06057463 -0.0015658819 -0.04085983 0.050995767 0.032183975
-0.0054872353 -0.0354031 0.08780941 -0.04503201 -0.06725622 -0.021625053 0.04483862 0.0061866306
0.071165636 0.047166158 -0.020914257 -0.052691884 -0.078492604 0.08119689 0.0067037935 -0.047525164
-0.0763273 0.08515944 0.020747345 -0.050272137 0.0641735 0.039877936 0.062290184 -0.055614587
0.08322814 -0.022369165 0.03964009 0.010507778 -0.029179074 -0.060639326 0.08715847 -0.014488959
00000000: 9f92 a93d bcc7 8fbb 2672 753d e5ba 833b
00000010: 765a ad3c 08b3 5d3d d218 b2bd 8ff9 47bc
00000020: e076 a23d bbba 313d ef97 a23d f70e b83c
00000030: 1b28 57bd dddf d73c 549c 503d 0e4d aabd
00000040: d79c 7bbd 105c 3abd 6d8b 9d3b 1f7a 92bd
00000050: 78f3 3bbd 7d7b 8b3d bd18 223c 5f11 69bd
00000060: 0717 a8bc 653e 9d3d 9c6e 6bbd afb9 0f3d
00000070: 0f60 173c d83a 9c3c 4095 8abd 42d1 8d3d
00000080: d87e d13c 1684 f6bc 4846 78bd bdc7 563b
00000090: 50cd 79bd 3f23 413d a868 9b3c 21fb cb3c
000000a0: b055 903c 61e7 df3c 204c 543d fd0b 4abd
000000b0: 2143 b03d 77a4 81bd 2d35 613d b635 a03d
000000c0: 9db7 09bd f4b5 793d 1370 1a3d 6621 7d3d
000000d0: 7243 e2bc 789f 75ba 848a 0f3d 76e3 b3bd
000000e0: d104 873c 96c6 353d 7331 94bd 34b2 72bc
000000f0: 2299 4a3d 3b26 08bd 5610 71bd c2a9 273d
00000100: 97e0 793c 43b0 493d 2a5a ab3d dda5 5a3c
00000110: 786f 263c b40b abbd 5bd7 3c3d 7958 3c3d
00000120: 761b 893d 09ae 033c 8966 adbd 3f6b 8dbc
00000130: 9d9c a63d 2e8c f9bb 2754 81bb 4556 eb3c
00000140: f326 08bd 5fd7 fabb d5ab 06bd 41bb 653d
00000150: 266d 4c3c 1b06 27bd ee4e 2fbd 6b5a 143d
00000160: cf6a 85bd ed7c 9e3d 986d a13d 1a1d 783d
00000170: 473e cdba a35c 27bd f0e0 503d 58d3 033d
00000180: 44ce b3bb d702 11bd 6cd5 b33d 7c73 38bd
00000190: a1bd 89bd 0627 b1bc b3a8 373d 38b9 ca3b
000001a0: 4abf 913d 4d31 413d 6054 abbc 72d3 57bd
000001b0: bbc0 a0bd 8e4a a63d 7fab db3b bfa9 42bd
000001c0: 7d51 9cbd 1368 ae3d 56f6 a93c 28ea 4dbd
000001d0: 656d 833d 0c57 233d fe23 7f3d 1fcc 63bd
000001e0: 8473 aa3d 8a3f b7bc a65d 223d d128 2c3c
000001f0: f408 efbc f160 78bd 2480 b23d 1963 6dbc

fc.4.weight f4 [5, 128]
-0.060573325 0.04121831 0.03175471 -0.030430993 0.010588331 -0.0783528 0.07319158 -0.039413404
0.040135536 0.086115725 -0.0071150097 0.07936246 0.015800422 0.06389204 0.07301026 0.08077191
0.07351897 -0.032029003 -0.015162877 -0.062772095 0.06781353 0.025824027 0.088341 -0.0073518115
-0.069165096 0.0070319064 0.026714621 0.0045160768 -0.078917496 0.0031211532 0.06865229 -0.0043339813
-0.07839624 -0.005150661 0.052455757 0.08001486 0.06399924 0.08745945 -0.0033987006 0.028482366
-0.0549222 0.043845724 0.07699305 -0.032894075 0.08339046 -0.011091902 0.07844661 -0.026305418
-0.06671963 -0.015463172 -0.016978005 0.020527117 -0.07676532 0.01279926 -0.011842506 -0.039424647
0.051878188 -0.03311911 0.08010569 0.03139073 -0.0017182637 0.06366291 0.07701952 0.060842283
0.07636941 0.08774223 -0.024751706 0.03852384 0.028400475 0.06642539 -0.0745408 -0.083860435
0.048528682 0.054846305 0.046962157 0.031779323 -0.078581385 -0.015877286 -0.061467815 0.0017668064
0.042917777 -0.021873476 -0.039302398 0.056128148 -0.044371244 -0.0044102776 0.041368976 0.011645522
0.058835145 0.07515958 0.029545562 0.012620916 0.014991318 0.087336235 -0.015111194 -0.073119126
0.066157326 0.058144294 -0.061950143 0.04465885 0.01345202 -0.058130283 -0.030586895 -0.06058401
0.06104066 0.0143436575 0.028360203 -0.008328027 0.00525253 -0.06682871 -0.08028521 0.009492145
-0.021712843 0.03612658 0.0866258 0.018985763 -0.038816553 -0.028051624 -0.024211394 -0.045155384
0.023855675 -0.0826441 0.066120386 0.03356594 -0.02064442 0.06671391 -0.071692444 -0.064612225
0.08265664 0.08307638 0.075127244 -0.05769464 -0.05994188 -0.07592254 0.06313364 -0.022623776
-0.032454852 -0.017096406 0.065024875 0.08822748 -0.026029166 -0.04267164 -0.017567912 -0.05268479
-0.008299673 -0.023631938 -0.067168504 0.012053998 0.0023630895 0.06612713 -0.08495011 0.022676205
-0.0029982952 -0.075021304 -0.06798987 0.05008213 0.067350306 0.08507288 -0.00087398867 0.076436155
-0.04817408 0.054510467 0.06722291 0.034266453 0.01939323 0.009738282 -0.014669463 -0.040957116
0.033448223 0.08190453 -0.04628041 0.043216765 -0.028098324 -0.084017605 0.08759563 0.040354405
-0.033299424 -0.006617076 0.015287157 -0.069695726 -0.035482474 0.016350985 -0.027095534 -0.07230227
0.017879367 -0.07984722 0.013581706 -0.014890292 -0.020094806 -0.080064036 -0.018414758 -0.020808024
0.07580008 -0.055027906 0.04974294 -0.012137828 0.055672456 -0.049480177 0.012905797 0.021158993
-0.041352842 -0.04573369 -0.018927991 0.02671321 -0.03602424 -0.033378195 0.050844178 -0.08208609
-0.025975639 0.00534461 0.041072935 -0.036876827 0.057472695 -0.026764607 0.046492293 0.07364185
-0.028260926 -0.055544794 -0.064570986 0.08666553 0.0052831178 0.06672138 0.050956413 0.08488634
0.06580073 -0.033606496 0.051339034 -0.014619688 -0.028611682 0.0060991757 0.074647434 0.075095505
0.027976478 -0.026596874 -0.021737164 -0.0046700076 0.050727017 0.043323196 0.003116359 -0.026607083
-0.042972777 0.017766804 0.023732532 0.0047329436 -0.054747175 -0.0698872 0.011161465 0.020821134
0.0676768 0.08708041 -0.08637651 0.060062736 0.06369691 -0.06480046 0.020927312 -0.011883999
00000000: bc1b 78bd 88d4 283d 3a11 023d 6b4a f9bc
00000010: ae7a 2d3c 6f77 a0bd 78e5 953d f36f 21bd
00000020: 2965 243d 715d b03d 0725 e9bb c988 a23d
00000030: e36f 813c d4d9 823d 6786 953d be6b a53d
00000040: 1d91 963d d830 03bd b76d 78bc a88e 80bd
00000050: d2e1 8a3d e98c d33c 20ec b43d 77e7 f0bb
00000060: 6ea6 8dbd e86b e63b 9fd8 da3c 99fb 933b
00000070: 7f9f a1bd 438c 4c3b 9299 8c3d 1204 8ebb
00000080: 358e a0bd e0c6 a8bb d9db 563d d5de a33d
00000090: 0912 833d f11d b33d bcbc 5ebb da53 e93c
000000a0: 1af6 60bd 9397 333d 88ae 9d3d f0bb 06bd
000000b0: 9ec8 aa3d cfba 35bc 9ea8 a03d 767e d7bc
000000c0: 4da4 88bd 3f59 7dbc 7515 8bbc 7c28 a83c
000000d0: 2337 9dbd fdb3 513c 1207 42bc bd7b 21bd
000000e0: 397e 543d e7a7 07bd 740e a43d 9193 003d
000000f0: 5d37 e1ba b361 823d 69bc 9d3d c235 793d
00000100: 9167 9c3d 33b2 b33d 17c4 cabc 2dcb 1d3d
00000110: 1da8 e83c 090a 883d d9a8 98bd 05bf abbd
00000120: 03c6 463d 85a6 603d 645b 403d 092b 023d
00000130: 47ef a0bd 1511 82bc adc5 7bbd 2f94 e73a
00000140: 8dca 2f3d 0130 b3bc 8dfb 20bd a1e6 653d
00000150: 9fbe 35bd 1784 90bb 8472 293d dccc 3e3c
00000160: 1ffd 703d 44ed 993d 8909 f23c f5c7 4e3c
00000170: 259e 753c 57dd b23d f194 77bc 7bbf 95bd
00000180: 7e7d 873d b628 6e3d 6fbf 7dbd 33ec 363d
00000190: dc65 5c3c 051a 6ebd 5e91 fabc f026 78bd
000001a0: c505 7a3d a901 6b3c a853 e83c 4772 08bc
000001b0: 6a1d ac3b 7edd 88bd 926c a4bd f184 1b3c
000001c0: 22df b1bc 77f9 133d de68 b13d 0888 9b3c
000001d0: 1bfe 1ebd 85cc e5bc f956 c6bc daf4 38bd
000001e0: fa6c c33c 4f41 a9bd 206a 873d 707c 093d
000001f0: 7d1e a9bc 4da1 883d 7dd3 92bd 6a53 84bd
00000200: e247 a93d f323 aa3d 50dc 993d 3751 6cbd
00000210: 9e85 75bd 477d 9bbd 364c 813d 7f55 b9bc
00000220: 61ef 04bd c30d 8cbc c32b 853d 9cb0 b43d
00000230: 1e3b d5bc 75c8 2ebd 95ea 8fbc 02cc 57bd
00000240: 5afb 07bc c497 c1bc a48f 89bd 227e 453c
00000250: 10de 1a3b a96d 873d 53fa adbd 73c3 b93c
00000260: 0c7f 44bb c5a4 99bd 463e 8bbd eb22 4d3d
00000270: f5ee 893d b13a ae3d 631c 65ba 8f8a 9c3d
00000280: 2f52 45bd 5e46 5f3d 2aac 893d fb5a 0c3d
00000290: 8dde 9e3c 518d 1f3c 3058 70bc a6c2 27bd
000002a0: 0101 093d 90bd a73d 8790 3dbd 1004 313d
000002b0: 752e e6bc 6c11 acbd 5665 b33d a94a 253d
000002c0: fa64 08bd 0fd4 d8bb fc76 7a3c a2bc 8ebd
000002d0: 1256 11bd 80f2 853c 74f7 ddbc 3613 94bd
000002e0: c077 923c f086 a3bd ce85 5e3c 69f6 73bc
000002f0: dd9d a4bc 9df8 a3bd 8cda 96bc 9775 aabc
00000300: 133d 9b3d f164 61bd 41bf 4b3d bedd 46bc
00000310: cd08 643d baab 4abd d672 533c a055 ad3c
00000320: 9961 29bd 4053 3bbd e00e 9bbc a9d5 da3c
00000330: 278e 13bd 93b7 08bd fc41 503d c11c a8bd
00000340: ddca d4bc d721 af3b 183c 283d 280c 17bd
00000350: 7d68 6b3d 7341 dbbc b46e 3e3d 8ad1 963d
00000360: 7583 e7bc f082 63bd cb3d 84bd b37d b13d
00000370: 011e ad3b 38a5 883d acb7 503d e4d8 ad3d
00000380: 88c2 863d f7a6 09bd e148 523d 6a87 6fbc
00000390: 0c63 eabc 98db c73b c1e0 983d accb 993d
000003a0: ed2e e53c b0e1 d9bc 2312 b2bc dd06 99bb
000003b0: 22c7 4f3d aa73 313d d43b 4c3b 19f7 d9bc
000003c0: 3904 30bd b08b 913c ba6a c23c cf16 9b3b
000003d0: 933e 60bd 0521 8fbd 94de 363c 1591 aa3c
000003e0: 229a 8a3d 3757 b23d 2be6 b0bd 5804 763d
000003f0: 8773 823d 1bb6 84bd c16f ab3c 1bb5 42bc

fc.4.bias f4 [5]
0.013819024 0.056956567 0.038933802 0.07028777 0.08538777
00000000: 3069 623c 4a4b 693d 0d79 1f3d 09f3 8f3d
00000010: c8df ae3d
